mnist_convnet.pth (torch, 71812 bytes, 6 tensors)

conv1.weight f4 [4, 1, 7, 7]
-0.05440833 -0.12455753 0.048286267 0.017159047 0.0064345268 0.10815045 -0.22908717 -0.01824158
-0.14116156 -0.038579386 0.12285126 0.22529417 0.017159164 -0.18410227 -0.07310874 0.07454479
0.17251953 0.023038918 0.12939909 -0.13265513 -0.2864861 -0.14343205 0.12587756 0.144523
0.17032625 0.07780254 -0.14916283 -0.3152753 -0.06465412 0.19834025 0.20342162 -0.054998223
-0.132548 -0.19083945 -0.16025037 -0.06014982 0.14686128 0.28364256 0.04560143 -0.10096673
-0.13377501 -0.07407853 -0.0743049 0.21274765 0.21315275 -0.055605464 -0.15202881 -0.13736914
-0.153384 -0.047034312 -0.07114817 -0.053825464 0.22183508 0.35089317 0.2459711 0.12500833
-0.06977487 -0.12206182 -0.07076897 0.07823054 0.21724853 0.09050845 0.111051045 0.046479456
-0.23252812 -0.16736308 -0.15327837 -0.1408328 -0.16673288 0.011946146 0.038818546 -0.16036521
-0.3130139 -0.12754774 -0.16430545 -0.1679316 0.0016878302 0.14452644 -0.15507594 -0.1870421
-0.12946169 -0.24108031 -0.06284453 -0.23071085 0.16368018 -0.07675704 -0.12836196 -0.0602905
-0.09508362 -0.08693328 0.013755996 0.31621322 0.23821731 0.22122934 0.15616874 0.21669938
0.11833556 -0.08972942 0.11432381 0.058963507 -0.065070994 -0.10153575 -0.06396687 0.07329073
0.0748285 0.00069796917 -0.0431187 -0.041232888 -0.19771934 -0.08844904 0.1321869 0.054244757
0.12496222 -0.07286198 -0.0026237457 -0.040930748 -0.09912239 0.21109807 0.25632423 0.13207631
0.0024384856 -0.031077739 -0.21477316 -0.08421856 -0.0016500794 0.20484056 0.09491792 0.08093316
-0.064207144 -0.23980336 -0.30229092 -0.16798967 -0.0553446 -0.11789558 0.023957074 -0.07839054
-0.275281 -0.19439475 -0.13198286 -0.18672961 -0.10780229 0.13763961 0.061421495 0.059378166
-0.10712264 -0.12137622 -0.11119865 -0.009730907 -0.09532981 -0.15943278 -0.02224604 -0.016078288
0.06250926 0.023680614 0.08679137 -0.2002487 -0.12830672 -0.04150346 -0.07004409 0.12942138
0.15561467 -0.17545278 -0.20850281 -0.14529018 0.05448865 0.060085047 0.26602972 0.108863235
-0.32132474 -0.050184645 0.09115192 0.06809952 0.34388945 0.12919554 0.07945429 -0.07911072
0.20660934 0.095127404 0.34474322 0.2609508 0.1504874 -0.19217665 0.10474315 0.1826888
0.2123189 0.14007357 0.028785085 -0.11302354 -0.15757619 0.15587342 0.04296261 -0.1008583
0.0032814825 -0.19662327 -0.16097622 -0.10594176
00000000: 45db 5ebd 0518 ffbd d2c7 453d 2191 8c3c
00000010: b9d8 d23b fc7d dd3d d495 6abe 5e6f 95bc
00000020: a88c 10be 6b05 1ebd 7199 fb3d 84b3 663e
00000030: 6091 8c3c 4e85 3cbe 09ba 95bd f0aa 983d
00000040: f6a8 303e 1dbc bc3c 3281 043e bfd6 07be
00000050: 4eae 92be dadf 12be 0ce6 003e d6fd 133e
00000060: 016a 2e3e f056 9f3d 24be 18be c46b a1be
00000070: 6169 84bd b519 4b3e c24d 503e d145 61bd
00000080: aaba 07be 6b6b 43be ac18 24be a85f 76bd
00000090: ce62 163e 9939 913e 91c8 3a3d a5c7 cebd
000000a0: 51fc 08be 7cb6 97bd 2b2d 98bd 85da 593e
000000b0: b744 5a3e 8ec2 63bd 71ad 1bbe 7faa 0cbe
000000c0: b210 1dbe 0da7 40bd 22b6 91bd 1778 5cbd
000000d0: bc28 633e 45a8 b33e d9df 7b3e 2f02 003e
000000e0: 21e6 8ebd 8cfb f9bd 52ef 90bd 5537 a03d
000000f0: 6676 5e3e 7f5c b93d bb6e e33d 3e61 3e3d
00000100: da1b 6ebe 3a61 2bbe 01f5 1cbe 7936 10be
00000110: 06bc 2abe c5b9 433c 3200 1f3d c736 24be
00000120: 5c43 a0be e09b 02be b03f 28be 43f6 2bbe
00000130: 2f3a dd3a bdfe 133e 3acc 1ebe f787 3fbe
00000140: 9b91 04be c2dd 76be a2b4 80bd 773f 6cbe
00000150: c79b 273e cc32 9dbd 5171 03be 2cf3 76bd
00000160: 33bb c2bd 130a b2bd d460 613c b3e6 a13e
00000170: 3def 733e f289 623e b3ea 1f3e 71e6 5d3e
00000180: ea59 f23d 0fc4 b7bd 9a22 ea3d b883 713d
00000190: f143 85bd faf1 cfbd 1001 83bd 7319 963d
000001a0: af3f 993d ebf7 363a 3c9d 30bd d1e3 28bd
000001b0: f076 4abe c524 b5bd 015c 073e c02f 5e3d
000001c0: 31ec ff3d a938 95bd 26f3 2bbb 00a7 27bd
000001d0: ae00 cbbd 182a 583e ee3c 833e 033f 073e
000001e0: 00cf 1f3b be96 febc 7fed 5bbe c87a acbd
000001f0: 7a47 d8ba b9c1 513e 5464 c23d 49c0 a53d
00000200: 097f 83bd 038f 75be e0c5 9abe 7c05 2cbe
00000210: 05b1 62bd 3d73 f1bd a041 c43c 388b a0bd
00000220: a2f1 8cbe 6b0f 47be 8426 07be 0c36 3fbe
00000230: 72c7 dcbd 66f1 0c3e 1b95 7b3d 8536 733d
00000240: 1d63 dbbd 1894 f8bd 1ebc e3bd 626e 1fbc
00000250: 473c c3bd 5942 23be 543d b6bc 9db6 83bc
00000260: db04 803d d9fd c13c acbf b13d ff0d 4dbe
00000270: d662 03be 88ff 29bd 4773 8fbd 0a87 043e
00000280: 7459 1f3e e5a9 33be c381 55be f3c6 14be
00000290: 7e2f 5f3d bd1b 763d 0c35 883e b0f3 de3d
000002a0: ad84 a4be 6a8e 4dbd dcad ba3d c377 8b3d
000002b0: 4712 b03e d64b 043e eeb8 a23d cd04 a2bd
000002c0: 6691 533e 28d2 c23d 2f82 b03e 589b 853e
000002d0: 5e19 1a3e f5c9 44be 9483 d63d c612 3b3e
000002e0: 206a 593e 726f 0f3e b3ce eb3c e378 e7bd
000002f0: a75b 21be 489d 1f3e 90f9 2f3d cc8e cebd
00000300: 240e 573b 9c57 49be f3d6 24be fef7 d8bd

conv1.bias f4 [4]
0.41626325 -0.15674728 -0.15962261 0.0014412609
00000000: 7520 d53e 5c82 20be 1c74 23be b1e8 bc3a

fc1.weight f4 [64, 256]
-0.059216924 -0.11641996 -0.079508364 0.15559617 -0.048148517 -0.18179068 -0.10011888 -0.11647837
0.025900107 -0.11479927 -0.024881115 0.09218088 -0.07419043 -0.0058167046 -0.067121275 -0.055271342
0.0100153005 -0.10148116 -0.045726433 -0.044223577 -0.17950562 -0.090288594 -0.15434651 -0.09750461
-0.05389947 0.05564951 0.097691074 -0.04248206 -0.032576043 0.0593649 -0.051473413 0.042864777
-0.15813372 -0.061954893 -0.20430735 -0.088548504 -0.07388185 0.07242601 0.048198856 -0.022597179
-0.31051457 -0.15473358 -0.2334587 -0.004955128 0.041724395 0.11271908 0.060811922 -0.19909269
-0.26792586 -0.054855898 0.027097171 0.029905915 0.05409714 0.11812166 0.0340283 -0.05994772
-0.12973692 -0.03120146 0.10663832 0.105497114 0.22297196 0.054961406 -0.12250138 0.06703199
0.024304872 -0.001379275 -0.111392066 -0.085737966 -0.0474307 0.14994396 0.11533502 0.0032555643
0.0022697865 0.10188691 -0.022526952 -0.026959635 0.047996536 -0.0011142689 -0.025528211 -0.028146984
-0.11413038 -0.096147075 -0.010846008 -0.0043327156 0.038046904 0.02834227 0.032428566 0.060582973
0.01897533 0.13918954 0.0183175 0.007987513 -0.013678621 0.1311969 0.046301253 -0.10694304
0.042157426 0.17826863 0.15781344 0.19332834 0.027303077 0.043572098 -0.07260345 -0.06607581
0.07753779 0.1856525 0.25056788 -0.08309457 -0.028155927 -0.14676742 -0.17174047 -0.08092955
-0.056604408 0.106910996 -0.0644177 -0.15483096 -0.030461043 0.01736675 -0.08326891 -0.101473436
0.09460931 0.1582667 -0.053784795 -0.1873916 -0.07402282 -0.035439182 -0.006634828 -0.021328587
0.030087307 0.064178176 -0.11533203 -0.13273421 -0.12143164 -0.072387 -0.04179635 0.12678745
-0.11570331 -0.0281044 0.00018017001 0.029177127 -0.055088528 -0.004445593 -0.072889976 -0.07055071
-0.0103607485 -0.039569955 0.019786296 -0.085509785 0.1758262 -0.038162652 -0.15492083 -0.04514436
-0.006083521 0.06323079 -0.009965584 -0.018119898 0.047536254 0.006727673 -0.024928663 -0.04560851
0.047003515 -0.025997248 -0.13997093 -0.08338058 0.035690326 0.088408716 -0.07500861 0.01830657
0.038172416 0.09907801 -0.09948365 -0.0027604506 0.05554915 -0.030257009 0.044932365 0.0118692145
0.20010853 -0.19627616 -0.24662213 -0.058265105 0.06810549 -0.026667368 -0.0007411059 0.09196686
-0.0937436 -0.113551475 -0.09520952 -0.004827619 0.21640907 0.1460347 0.015515174 -0.04405021
0.1366288 -0.23378244 -0.29385075 0.016400937 0.010693943 -0.012030971 -0.02269537 0.03431703
-0.027487444 -0.0006865092 -0.08837377 -0.041695222 -0.032472983 0.1694188 0.04749755 0.061732274
-0.018151153 -0.06994235 -0.021842077 -0.007772911 -0.080370925 -0.041626535 0.11213642 0.055471208
0.06576073 0.038667392 -0.01722887 0.020948453 -0.023158591 -0.122993805 -0.32597473 -0.06531383
0.033991877 -0.17904839 -0.26580602 -0.19468805 0.012385101 -0.15407018 -0.0418668 -0.29608467
-0.09795615 -0.18848579 -0.16732061 -0.052828904 -0.014585176 0.095454626 -0.0076039187 0.0051643825
-0.052966293 -0.08237428 0.07154567 0.13287635 -0.05898976 0.04015833 0.009067857 -0.055383597
0.14382342 0.09587013 0.038547855 0.023231886 0.21113017 0.22205022 0.12991257 -0.071708255
00000000: 728d 72bd 976d eebd 48d5 a2bd 9a54 1f3e
00000010: 6137 45bd 5627 3abe 210b cdbd 368c eebd
00000020: 762c d43c e11b ebbd 7bd3 cbbc 54c9 bc3d
00000030: 27f1 97bd 0e9a bebb e176 89bd 3464 62bd
00000040: 3717 243c 5bd5 cfbd a44b 3bbd c823 35bd
00000050: 52d0 37be 3ae9 b8bd 030d 1ebe 7fb0 c7bd
00000060: b1c5 5cbd bef0 633d 4212 c83d ab01 2ebd
00000070: 756e 05bd 9c28 733d c9d5 52bd fa92 2f3d
00000080: ceed 21be 6ac4 7dbd f235 51be eb58 b5bd
00000090: 5e4f 97bd 1754 943d 2a6c 453d b81d b9bc
000000a0: c4fb 9ebe 7b72 1ebe cc0f 6fbe a05e a2bb
000000b0: 33e7 2a3d 43d9 e63d ec15 793d f4de 4bbe
000000c0: 942d 89be 94b0 60bd e3fa dd3c 40fd f43c
000000d0: f694 5d3d c5e9 f13d 4261 0b3d be8b 75bd
000000e0: c1d9 04be 349a ffbc 3165 da3d df0e d83d
000000f0: c352 643e 361f 613d 01e2 fabd 1148 893d
00000100: 031b c73c cac8 b4ba 8621 e4bd 6397 afbd
00000110: b246 42bd e98a 193e c434 ec3d 4e5b 553b
00000120: b3c0 143b 16aa d03d 718a b8bc 74da dcbc
00000130: 0498 443d a90c 92ba 8a20 d1bc 8194 e6bc
00000140: 30bd e9bd c2e8 c4bd 74b3 31bc 74f9 8dbb
00000150: 12d7 1b3d 0c2e e83c d1d3 043d da25 783d
00000160: 2772 9b3c b487 0e3e 950e 963c 0fde 023c
00000170: 4b1c 60bc 7b58 063e 62a6 3d3d f404 dbbd
00000180: 44ad 2c3d 0d8c 363e d999 213e ddf7 453e
00000190: b4aa df3c a878 323d 1eb1 94bd c152 87bd
000001a0: 22cc 9e3d b01b 3e3e 6f4a 803e 7c2d aabd
000001b0: 42a7 e6bc 334a 16be bcdc 2fbe 64be a5bd
000001c0: 06da 67bd 27f4 da3d 6ded 83bd 028c 1ebe
000001d0: 7089 f9bc b744 8e3c e488 aabd 4ed1 cfbd
000001e0: 87c2 c13d aa10 223e 724d 5cbd 95e3 3fbe
000001f0: 4799 97bd ad28 11bd f968 d9bb 4ab9 aebc
00000200: a879 f63c d96f 833d 3333 ecbd 7aeb 07be
00000210: 27b1 f8bd a33f 94bd a632 2bbd 92d4 013e
00000220: dbf5 ecbd 333b e6bc 05ec 3c39 df04 ef3c
00000230: 82a4 61bd 56ac 91bb 5747 95bd e47c 90bd
00000240: 21c0 29bc 1b14 22bd df16 a23c c11f afbd
00000250: c90b 343e 7150 1cbd 91a3 1ebe 4be9 38bd
00000260: 4658 c7bb 257f 813d b046 23bc 2e70 94bc
00000270: 60b5 423d d073 dc3b 3237 ccbc fdcf 3abd
00000280: c286 403d 2ef8 d4bc 8a54 0fbe 70c3 aabd
00000290: 0530 123d a10f b53d 1d9e 99bd a9f7 953c
000002a0: ae5a 1c3d 69e9 ca3d 15be cbbd ade8 34bb
000002b0: 8187 633d 8cdd f7bc 000b 383d 1877 423c
000002c0: 40e9 4c3e 9efc 48be 838a 7cbe 64a7 6ebd
000002d0: e47a 8b3d 8675 dabc c646 42ba 1f59 bc3d
000002e0: a5fc bfbd ad8d e8bd 35fd c2bd 0131 9ebb
000002f0: 579a 5d3e 1f8a 153e 5b33 7e3c fe6d 34bd
00000300: 6ce8 0b3e aa64 6fbe 9b73 96be 425b 863c
00000310: a635 2f3c 8d1d 45bc a4eb b9bc 0490 0c3d
00000320: 592d e1bc daf6 33ba 4ffd b4bd 9cc8 2abd
00000330: 6402 05bd 1f7c 2d3e ca8c 423d fbda 7c3d
00000340: bab1 94bc ef3d 8fbd 28ee b2bc e7b3 febb
00000350: 8399 a4bd 9680 2abd c8a7 e53d c735 633d
00000360: 90ad 863d b361 1e3d 8f23 8dbc 179c ab3c
00000370: 16b7 bdbc 2de4 fbbd 29e6 a6be 42c3 85bd
00000380: 113b 0b3d 7658 37be ba17 88be 4e5c 47be
00000390: e1ea 4a3c 93c4 1dbe 867c 2bbd 6998 97be
000003a0: 3c9d c8bd 6b02 41be 1856 2bbe 1f63 58bd
000003b0: a9f6 6ebc b77d c33d 4b2a f9bb fb39 a93b
000003c0: 2ff3 58bd d9b3 a8bd 8986 923d bd10 083e
000003d0: 3f9f 71bd 107d 243d 5991 143c e9d9 62bd
000003e0: 7246 133e 8f57 c43d 5be4 1d3d cc50 be3c
000003f0: 8232 583e 2261 633e cd07 053e c7db 92bd

fc1.bias f4 [64]
-0.12294826 0.13722791 0.15304445 0.05153741 0.13026427 -0.21787308 0.07856191 0.15698497
0.075990155 0.2608125 0.047926884 -0.119443096 -0.15936276 0.059868056 0.17697164 0.1194687
0.22088586 0.086425506 0.0069396705 -0.019536162 0.16015449 -0.16478077 -0.097981445 -0.029426057
0.10912635 0.11522029 0.1062678 0.046358336 -0.1515055 -0.12576938 0.19196557 -0.19720885
-0.07989419 0.08275109 -0.11606183 0.04019876 -0.16425925 0.008705472 -0.1949412 0.13162693
-0.029739695 -0.12665641 0.05529761 -0.08969721 0.2153519 -0.10415665 -0.14607364 0.07926313
-0.107265815 0.12280275 -0.19055735 0.054865394 -0.14257987 -0.11157807 0.18457434 -0.25461292
0.18561985 0.028210351 0.06613788 0.17312965 -0.061662864 -0.027437447 -0.24040195 -0.107999526
00000000: 4ccc fbbd 7985 0c3e afb7 1c3e e418 533d
00000010: ff63 053e 1f1a 5fbe 11e5 a03d abc0 203e
00000020: baa0 9b3d 3789 853e fb4e 443d 959e f4bd
00000030: fe2f 23be 3538 753d 0e38 353e 01ac f43d
00000040: e72f 623e dbff b03d 2d66 e33b 4d0a a0bc
00000050: 8aff 233e 4abc 28be 7faa c8bd ea0e f1bc
00000060: a37d df3d 9ef8 eb3d efa2 d93d 3de2 3d3d
00000070: 4224 1bbe b0c9 00be 9f92 443e 1ef1 49be
00000080: 919f a3bd 6779 a93d d3b1 edbd 74a7 243d
00000090: 9433 28be 65a1 0e3c aa9e 47be 36c9 063e
000000a0: a9a0 f3bc 38b2 01be bf7f 623d 2cb3 b7bd
000000b0: 3585 5c3e 1550 d5bd 5494 15be b554 a23d
000000c0: 2eae dbbd 0280 fb3d 7721 43be 89ba 603d
000000d0: 7500 12be 0b83 e4bd 0e01 3d3e a05c 82be
000000e0: 2113 3e3e 6519 e73c 4c73 873d e648 313e
000000f0: 3392 7cbd 7fc4 e0bc ee2b 76be db2e ddbd

fc2.weight f4 [10, 64]
0.110778555 0.15130801 -0.21745315 -0.1044958 -0.0972532 -0.033841286 0.19965945 -0.14892189
0.008862523 -0.038565706 0.090963624 0.05993703 -0.068993986 -0.1740646 0.09105146 0.12964135
-0.1315907 0.14023022 0.21952184 0.05838318 -0.16092497 -0.012922472 0.08673525 -0.14474173
-0.22178419 0.08793906 0.063555084 -0.1524778 -0.09495588 0.15911478 0.015076617 -0.021021435
-0.018716905 0.0899189 -0.08912499 -0.12471021 -0.007943287 -0.15751468 -0.04187839 -0.10340636
0.090748526 0.11533566 -0.033432905 -0.13179724 0.08341057 -0.13468786 -0.0995765 0.045389116
-0.084274836 -0.0804184 -0.20624919 -0.0070383637 -0.22926073 -0.04392499 -0.22770838 0.1010806
-0.013599914 -0.22892739 -0.007926087 0.020674493 0.032654308 0.060428955 0.07133093 0.18024439
0.012600477 0.055011682 0.004620938 0.03951985 -0.06127726 -0.04360012 0.09527922 0.059806757
0.09967078 0.10109613 -0.5456801 -0.25492206 0.25688618 -0.08652515 0.043566167 -0.07146544
0.1266449 -0.004672451 0.10948831 0.036779486 0.10172778 -0.34554502 -0.26272726 0.029263556
-0.05153874 -0.19345173 0.016025934 -0.035026554 -0.050232336 -0.15602642 0.052868627 -0.030207098
0.04898749 0.044909537 0.21452662 0.15811443 -0.0139104985 -0.103617504 -0.0017951326 -0.24026182
-0.17008342 -0.36390924 -0.20899875 0.0012568736 0.21346578 0.053712018 0.06827382 -0.10603015
0.14406122 -0.043695375 0.07536168 -0.18440849 0.0869696 0.003231363 -0.1438279 0.16895542
-0.28314507 -0.29535913 0.09640329 0.13656798 -0.303272 -0.10420614 -0.036969606 0.1944798
0.14322084 -0.014668055 -0.06958687 -0.07446454 -0.1992942 -0.13497424 0.081070445 0.0442799
-0.060975015 0.02873077 -0.05748617 -0.26401663 0.13007925 0.01175809 0.06088932 0.12943992
-0.18768618 -0.14494824 0.16736493 0.10649445 0.055990048 -0.08056261 0.10748544 0.023543328
0.038173407 0.14294238 -0.15471761 0.24107325 0.055739943 -0.0036097434 -0.21443303 0.11284383
0.16294225 -0.18588302 -0.11228039 0.10647368 0.16539386 -0.0036138012 0.16015121 -0.020919558
-0.20394294 0.032365475 -0.27746585 0.12722048 0.013465825 0.08042238 0.06009057 0.06446266
0.04439838 -0.0070943153 0.20949048 -0.18493278 -0.09359625 -0.21376914 -0.18363917 0.20273736
0.09108852 -0.11029302 -0.06204352 0.019349646 0.10519325 -0.11441004 -0.23742068 -0.07589109
-0.09999698 -0.0105963135 -0.07872271 0.14941323 0.08948478 -0.11556745 -0.03334717 0.052565284
0.051332414 0.10001046 -0.063117325 0.025766248 0.061271116 -0.09801667 -0.25646004 -0.13864799
-0.11076366 0.009978792 -0.015395058 0.10757751 0.11756597 0.08167644 0.1363739 -0.07049353
0.16883764 0.017509654 0.07263504 -0.01958029 0.22281903 -0.15458052 0.011048062 0.0006516199
0.10064696 -0.17634842 -0.098884046 0.17432323 0.06264941 -0.11519208 0.11742053 0.1905956
-0.13459264 0.10456493 -0.19933626 0.10768447 -0.22116277 -0.18594587 -0.098378554 -0.11426071
0.20178428 -0.08236838 -0.014223456 0.121631615 -0.01571011 0.04132181 0.13558006 -0.22814691
-0.22167772 0.09818815 -0.18657072 -0.14012025 -0.01310536 0.21437946 -0.06619984 0.025550265
00000000: dedf e23d 7df0 1a3e 0aac 5ebe e501 d6bd
00000010: b02c c7bd 299d 0abd 8773 4c3e fb7e 18be
00000020: 1e34 113c 13f7 1dbd 234b ba3d 8880 753d
00000030: b84c 8dbd fe3d 32be 3079 ba3d b4c0 043e
00000040: b6bf 06be 8398 0f3e 55ca 603e 3423 6f3d
00000050: 84c9 24be c7b8 53bc 40a2 b13d 2d37 14be
00000060: 651b 63be 6519 b43d 2b29 823d 2423 1cbe
00000070: 3a78 c2bd fcee 223e ea03 773c 2535 acbc
00000080: 3254 99bc 6627 b83d 2a87 b6bd 1168 ffbd
00000090: 8f24 02bc 874b 21be ad88 2bbd b7c6 d3bd
000000a0: 5dda b93d 1a35 ec3d f1f0 08bd dbf5 06be
000000b0: 29d3 aa3d 9deb 09be c4ee cbbd f0e9 393d
000000c0: 4998 acbd 67b2 a4bd fd32 53be 13a2 e6bb
000000d0: 53c3 6abe b1ea 33bd 632c 69be 5803 cf3d
000000e0: 2cd2 5ebc f16b 6abe 6bdc 01bc 8e5d a93c
000000f0: 86c0 053d 5a84 773d f315 923d fc91 383e
00000100: 3b72 4e3c ee53 613d 3d6b 973b 91df 213d
00000110: ddfd 7abd 0a96 32bd c021 c33d eef7 743d
00000120: 3220 cc3d 7d0b cf3d b1b1 0bbf 2585 82be
00000130: 9686 833e 1934 b1bd 7072 323d 795c 92bd
00000140: 33af 013e 5c1b 99bb 683b e03d 16a6 163d
00000150: a856 d03d 47eb b0be 3084 86be 20ba ef3c
00000160: 491a 53bd 3618 46be d248 833c 0178 0fbd
00000170: 6cc0 4dbd 64c5 1fbe c68c 583d e074 f7bc
00000180: 1ba7 483d 10f3 373d deac 5b3e c0e8 213e
00000190: dce8 63bc 6a35 d4bd a84a ebba 3207 76be
000001a0: 592a 2ebe 5052 babe c503 56be aebd a43a
000001b0: c696 5a3e 2201 5c3d 25d3 8b3d 5626 d9bd
000001c0: c984 133e ecf9 32bd 3957 9a3d 94d5 3cbe
000001d0: 1e1d b23d 46c5 533b 9f47 13be a602 2d3e
000001e0: 64f8 90be 5039 97be 176f c53d 7ad8 0b3e
000001f0: 7846 9bbe 076a d5bd 716d 17bd b625 473e
00000200: 7ca8 123e 4852 70bc 9083 8ebd dd80 98bd
00000210: c713 4cbe b036 0abe 4308 a63d d75e 353d
00000220: f0c0 79bd cb5c eb3c 9e76 6bbd 302d 87be
00000230: 7f33 053e 01a5 403c 1467 793d e68b 043e
00000240: ce30 40be 506d 14be b661 2b3e c319 da3d
00000250: d255 653d 02fe a4bd 5421 dc3d f0dd c03c
00000260: b85b 1c3d 7d5f 123e 4b6e 1ebe e8db 763e
00000270: 914f 643d 7291 6cbb 5594 5bbe aa1a e73d
00000280: 55da 263e 1e58 3ebe 43f3 e5bd df0e da3d
00000290: 025d 293e 86d5 6cbb aefe 233e 7e5f abbc
000002a0: 6bd6 50be a991 043d 0110 8ebe 1646 023e
000002b0: c39f 5c3c 7db4 a43d 8821 763d 0005 843d
000002c0: 13db 353d 6e77 e8bb ac84 563e 055f 3dbe
000002d0: 64af bfbd 4ce6 5abe e80b 3cbe 629a 4f3e
000002e0: 9e8c ba3d 4fe1 e1bd 5921 7ebd 2683 9e3c
000002f0: 8f6f d73d d04f eabd 681e 73be ca6c 9bbd
00000300: 37cb ccbd 299c 2dbc 5f39 a1bd c8ff 183e
00000310: cc43 b73d a1ae ecbd 0b97 08bd b24e 573d
00000320: f041 523d 49d2 cc3d a843 81bd bd13 d33c
00000330: 6cf7 7a3d f7bc c8bd bb4e 83be bdf9 0dbe
00000340: 0fd8 e2bd 167e 233c 8e3b 7cbc 9951 dc3d
00000350: 6dc6 f03d fa45 a73d 9aa5 0b3e e95e 90bd
00000360: c6e3 2c3e 6870 8f3c aec1 943d d866 a0bc
00000370: ac2a 643e 5b4a 1ebe ee02 353c 79d1 2a3a
00000380: fe1f ce3d ae94 34be b883 cabd ca81 323e
00000390: 554e 803d d3e9 ebbd 2d7a f03d 7e2b 433e
000003a0: a7d2 09be 2326 d63d ce1e 4cbe ad89 dc3d
000003b0: 7e78 62be 9868 3ebe b27a c9bd 8501 eabd
000003c0: 8aa0 4e3e c1b0 a8bd 8009 69bc ff19 f93d
000003d0: 7db2 80bc 0f41 293d 80d5 0a3e 589f 69be
000003e0: 7cff 62be de16 c93d 650c 3fbe af7b 0fbe
000003f0: ddb7 56bc 4a86 5b3e c893 87bd ca4e d13c

fc2.bias f4 [10]
-0.053832874 0.19338647 0.11684133 0.07983985 -0.17332426 0.26996207 -0.058795895 0.003976396
-0.064183384 0.021186037
00000000: dc7f 5cbd 1a07 463e 824a ef3d 1383 a33d
00000010: ea7b 31be 7838 8a3e f7d3 70bd 6d4c 823b
00000020: 9472 83bd 578e ad3c
